stanford-cs234-master/assignments/results/q5_linear/model.weights.pt (torch, 3071 bytes, 2 tensors)

weight f4 [5, 100]
00000000: 6e2c f4bd 118b 7dbd 162f 57be 964a 22be
00000010: 8d9c 853d bfdf 16be 4146 e7bd 0d08 e53e
00000020: c084 813d acd3 ae3d 87ec 91bd 0f1c f53e
00000030: 34e7 9fbd 44ed cdbe 8abb a2be 205b 06bf
00000040: a00c 96be 5013 c1be 9d5e 3bbd 1e7e 4dbe
00000050: b547 1abe 52c6 f5bd 8b8c a03d 24ca 253f
00000060: 29e0 3dbe d191 c2be b18c 28bd 9aa8 bbbe
00000070: 7762 773e 6650 fdbd a23d 60be 8f3e 1dbf
00000080: 5e78 74be f71a b03d f1e6 9cbe 3faf eb3d
00000090: 4ac5 60be 156f dfbe d806 b23b df3b 49bf
000000a0: 05e7 453e 7e9a c53d fe56 f9bd f6b8 9abe
000000b0: 005d 53be 3f9d 4c3e e77e 383e 0c07 d13c
000000c0: 0a38 79be 0963 323e 5c47 413e 738a 3dbe
000000d0: fc9c dcbe 5830 e7be 59bd 85bc 6990 563e
000000e0: d99d 3ebd a3e3 00be 8acb c7bd c79b cbbb
000000f0: cd56 b1bd 7b96 87be adbd 4ebe a766 e4bd
00000100: d988 2fbd 4bba aabe 5989 f8bc 4ed2 963d
00000110: 4d32 7dbe ebfa 03bb 2e7a 8c3d 5a15 6a3e
00000120: fbac 3dbd 3cdc abb9 93c5 8d3e febe 06bb
00000130: 4b70 8f3d f176 933d cd47 e83d ae0d ef3c
00000140: 1eb5 45be 82cb 433e e171 56bc 7e6f 4abe
00000150: 85a5 843e 7a31 90be e775 dd3d f149 acbd
00000160: fb6d b4bd ddbf 5dbe 80ff 0b3f c81c 553f
00000170: 6c48 26bd 9efd 133e b04d 933e 87d1 f53e
00000180: 89bc 55bc 42ac b6be bbc5 ee3e 5452 123f
00000190: 365d 84be 99c4 b4bd 6f80 2f3c e78d 763e
000001a0: b8ed 86be 6a71 a0be c5db 13bd 95f3 82be
000001b0: b397 a33b 05f0 c0bc dfe8 a23c add9 083e
000001c0: f22e 3cbe 2565 58bd 9af5 85be c13e 2f3e
000001d0: 4cc5 b73e 3437 3a3e 7e00 8dbe a3bd 78bd
000001e0: 3320 a9be bd2c 5c3d 9793 ccbd 2efc 353f
000001f0: 04fe c23e 4403 54bd 7bd3 98be 5988 443d
00000200: 5c82 633d 2f49 b93d 7f1c b2bd 54b1 693d
00000210: 0681 6bbe 896e 87be f21d 8dbe c099 c23c
00000220: 8940 bb3e a330 a43d 6ba9 243e 837a f93d
00000230: 0e61 c639 1106 a9be 2080 55bd 3525 edbc
00000240: bc63 453e 334e 7b3c b821 143e 7793 883f
00000250: 1703 95be 8cfa 93be 0064 973e d914 113f
00000260: 2f0b 7ebe 2074 6cbd ea0c 0d3e 173e 10ba
00000270: 0c6a cabd 0f9c aa3e a250 30be 3be8 c93e
00000280: bde9 53bd b112 05be e6f7 06bd 3d4b fe3e
00000290: 7b74 7fbe 956e 50bd fe36 33be ed70 453e
000002a0: e6b5 1cbe 6a3d 973d 6a58 05be a16c 043e
000002b0: c4b3 843e 19a5 adbe a530 5c3e 97f9 b73e
000002c0: c56b 773e b6b3 0bbe 06ef b0be f162 e8be
000002d0: 1d07 c53e c002 a03b 153b b5be 511f 7bbd
000002e0: 2037 14be e95b bbbe f517 9cbd 35a3 933e
000002f0: 3297 90be f787 a7be fa68 d0bd 0bad 1c3f
00000300: 85a9 acbe 8dc2 8dbe c470 de3d d947 3b3f
00000310: 3777 a6be f636 433d 341d f0bd 2cb6 343e
00000320: c2ac 163c 5b17 373e 7c3e f8be d2df 4bbf
00000330: 0d34 cabe 1ca1 9e3c 9b1d c63e ddcd 0c3f
00000340: 33c8 0e3e 6f29 d4bd f8d7 17bd 6cea 233f
00000350: 963b 81be aadb d93d ec29 91be 664f 9ebf
00000360: 7da4 5f3e 8bcd b7be 70b3 a1be 794a 43bf
00000370: d73d 51be 08a6 44be 1bf4 d33d 1b25 923f
00000380: ced2 03bf de02 61be 0532 ea3c adae 52bf
00000390: 432f adbe 7a9b 7abd ebfc 1cbf b858 d5bf
000003a0: d5c7 1d3c 3554 8ebe d883 1dbe d02e 8fbe
000003b0: d799 81bd 76f6 ec3d b34f 96be 9c6b e9bf
000003c0: a9a9 1ebe 7c67 513e e3b3 0abf 2571 9ebf
000003d0: 9f74 a9bd 56fa 3a3e 1368 203f a786 c33f
000003e0: c59b ce3e 18de fdbc 7cd6 033e 9bd2 8e3f
000003f0: 535e d1be c8b4 4cbe 1d33 d0be 1b30 06bf
-0.11922537 -0.061900202 -0.21014056 -0.15848765 0.06524 -0.1473379 -0.11292697 0.44732705
0.06324148 0.08536467 -0.07125192 0.4787297 -0.0780777 -0.40220082 -0.31783706 -0.52482796
-0.29306507 -0.37710047 -0.045744527 -0.20067641 -0.15066417 -0.12000717 0.078393064 0.6476157
-0.18542542 -0.38001874 -0.0411498 -0.3665207 0.24158655 -0.123688504 -0.21898511 -0.6142358
-0.23874041 0.08598893 -0.30644944 0.11508035 -0.2195026 -0.43639436 0.0054329447 -0.7860698
0.19326408 0.09648608 -0.121747956 -0.3021924 -0.20640945 0.1998186 0.1801716 0.025516056
-0.24337783 0.17420591 0.18874878 -0.18509845 -0.4308852 -0.4515407 -0.01632564 0.20953526
-0.046537254 -0.12586837 -0.09755619 -0.0062136385 -0.08659134 -0.26481995 -0.20189543 -0.11152392
-0.042855117 -0.33345255 -0.03033893 0.07364331 -0.2472622 -0.0020138572 0.068592414 0.22859707
-0.046307545 -0.0003277975 0.276898 -0.0020560618 0.0700384 0.07200421 0.1134182 0.029181328
-0.19307372 0.19120601 -0.013088674 -0.19769093 0.2590753 -0.28162748 0.10813504 -0.08412541
-0.088100396 -0.21655221 0.5468674 0.8324704 -0.04059641 0.14452216 0.28770208 0.4801142
-0.013045439 -0.35678297 0.4663523 0.5715687 -0.25852364 -0.088265605 0.010711773 0.24077569
-0.2635324 -0.31336528 -0.03609826 -0.25576463 0.004992449 -0.02355195 0.019886432 0.13364287
-0.18377283 -0.052830834 -0.26163942 0.17113782 0.35892713 0.18185121 -0.27539438 -0.060727727
-0.3303238 0.053753603 -0.09989088 0.7108792 0.38084424 -0.051760927 -0.29848847 0.047981594
0.055544242 0.09047162 -0.086968414 0.05705388 -0.22998437 -0.2645152 -0.2756191 0.023754954
0.36572674 0.08017089 0.16080253 0.121815704 0.00037837814 -0.3301244 -0.052124143 -0.028948406
0.19276327 0.015338468 0.14465988 1.0670003 -0.2910392 -0.2890209 0.2956848 0.56672436
-0.24808954 -0.057727933 0.13774458 -0.0005502416 -0.09883508 0.33322188 -0.17218259 0.3943499
-0.051736582 -0.12995411 -0.032951258 0.49666777 -0.24946778 -0.05088671 -0.17501447 0.19281359
-0.15303764 0.07384761 -0.13022009 0.12932064 0.259184 -0.33915022 0.21502931 0.3593261
0.24162205 -0.13642773 -0.3455736 -0.45387986 0.3848199 0.0048831403 -0.3539664 -0.061309163
-0.14474154 -0.3659356 -0.07621757 0.28835455 -0.28240353 -0.3272092 -0.10176273 0.6120154
-0.33723083 -0.27687493 0.10861352 0.73156506 -0.3251283 0.047659837 -0.1172432 0.17647618
0.009196462 0.17880003 -0.48485172 -0.796384 -0.39492837 0.019363932 0.38694462 0.5500162
0.13943557 -0.10359465 -0.0370712 0.64029574 -0.25240773 0.10637601 -0.28352296 -1.236798
0.21840091 -0.35899004 -0.31582212 -0.7628551 -0.20433746 -0.19203961 0.10349294 1.1417574
-0.5149354 -0.2197375 0.028588304 -0.82297784 -0.3382512 -0.06118343 -0.6132342 -1.66677
0.009630163 -0.2779862 -0.15382326 -0.27965403 -0.06328171 0.11570446 -0.2935768 -1.8235965
-0.15494408 0.20449632 -0.54180735 -1.2378279 -0.08274197 0.18259558 0.62658805 1.5275468
0.40353218 -0.030989692 0.12874788 1.1158022 -0.40892276 -0.19990838 -0.40663996 -0.52417153

bias f4 [5]
00000000: e98a 1640 2889 813f 621f 8640 9c7c 9e3f
00000010: 463f f93f
2.3522284 1.0119982 4.191331 1.2381778 1.9472435
